…
      "WARNING:tensorflow:From /usr/local/lib/python3.5/dist-packages/keras/backend/tensorflow_backend.py:3445: calling dropout (from tensorflow.python.ops.nn_ops) with keep_prob is deprecated and will be removed in a future version.\n",
      "Instructions for updating:\n",
      "Please use `rate` instead of `keep_prob`. Rate should be set to `rate = 1 - keep_prob`.\n",
      "_________________________________________________________________\n",
      "Layer (type)                 Output Shape              Param #   \n",
      "=================================================================\n",
      "main_input (InputLayer)      (None, 100)               0         \n",
      "_________________________________________________________________\n",
      "dense_1 (Dense)              (None, 5000)              505000    \n",
      "_________________________________________________________________\n",
      "dropout_1 (Dropout)          (None, 5000)              0         \n",
      "_________________________________________________________________\n",
      "dense_2 (Dense)              (None, 2000)              10002000  \n",
      "_________________________________________________________________\n",
      "dropout_2 (Dropout)          (None, 2000)              0         \n",
      "_________________________________________________________________\n",
      "dense_3 (Dense)              (None, 100)               200100    \n",
      "_________________________________________________________________\n",
      "dropout_3 (Dropout)          (None, 100)               0         \n",
      "_________________________________________________________________\n",
      "dense_4 (Dense)              (None, 10)                1010      \n",
      "=================================================================\n",
      "Total params: 10,708,110\n",
      "Trainable params: 10,708,110\n",
      "Non-trainable params: 0\n",
      "_________________________________________________________________\n",
      "Training neural network...\n",
      "WARNING:tensorflow:From /usr/local/lib/python3.5/dist-packages/tensorflow/python/ops/math_ops.py:3066: to_int32 (from tensorflow.python.ops.math_ops) is deprecated and will be removed in a future version.\n",
…
